checkpoints/checkpoint-270/adapter_model.safetensors (safetensors, 891656 bytes, 48 tensors)

base_model.model.distilbert.transformer.layer.0.attention.k_lin.lora_A.weight f4 [6, 768]
0	0xbc03d9e1	-0.008047552
1	0xbc3a2cca	-0.011363218
2	0xba8e6991	-0.0010865201
3	0x3cd2f4ed	0.025751555
4	0xbc3d5087	-0.011554844
5	0x3b8a3eb2	0.0042188996
6	0x3d0ff349	0.035144124
7	0xbcb3e2f4	-0.021958806
8	0x3c505174	0.012714732
9	0xbca333e8	-0.019922212
10	0x3d164fdb	0.03669725
11	0x3b190885	0.0023351025
12	0x3d046db0	0.03233117
13	0xbc619c23	-0.013770136
14	0xbc3732e0	-0.011181563
15	0x3cac8010	0.021057159
16	0x3c43136e	0.011906488
17	0xba539536	-0.00080712454
18	0x3cc5f29c	0.024163537
19	0x3c991ad3	0.018689549
20	0xbb9994c2	-0.0046869228
21	0x3b7f5e0c	0.0038965968
22	0x3c754bee	0.014971716
23	0xbd0d2f5d	-0.034468997
24	0x3c96cef8	0.018409237
25	0x3c1a0393	0.009400266
26	0xba122a42	-0.0005575755
27	0x3caa8882	0.020817045
28	0x3c97d17e	0.01853251
29	0x3b8ae143	0.004238279
30	0x3bb3afab	0.0054835877
31	0x3a15a3ae	0.0005708289
32	0x3b2d9fcb	0.002649295
33	0x3cb691b4	0.022286274
34	0xbc86630d	-0.016404653
35	0x3c2dafee	0.010601027
36	0x3a616177	0.0008597592
37	0xbd1a260e	-0.037633948
38	0xbd0b36dc	-0.033987865
39	0xbcf1bdcd	-0.02950945
40	0xbcaf784a	-0.021419663
41	0xbca6baee	-0.020352807
42	0x3c00da72	0.007864581
43	0x3c82abce	0.015951063
44	0x3d06f958	0.032952636
45	0x38bcc26a	9.000751e-05
46	0xbd0a339e	-0.033740632
47	0x3c4409e1	0.011965246
48	0xbc81a90b	-0.015827676
49	0xbcbf14e6	-0.023325395
50	0xbcf0aea7	-0.029380156
51	0xbcdc0d38	-0.026861772
52	0xbd08447a	-0.03326843
53	0x3cad8e5b	0.021186044
54	0x3c9da6fb	0.019244662
55	0x3c037735	0.008024027
56	0xbce53118	-0.027977511
57	0x3c8d451c	0.017244868
58	0xbcc14baf	-0.023595659
59	0x3cf86c79	0.030325161
60	0xbc2d0ef1	-0.010562644
61	0x3cf13c19	0.029447602
62	0x3d092888	0.03348592
63	0xbd024dca	-0.031812467
64	0x3b09a5ed	0.002100344
65	0x3b320e89	0.0027169308
66	0x3c23476f	0.009965762
67	0x3bbba228	0.0057261176
68	0xbcdf900c	-0.027290367
69	0x3d13e0d2	0.036103077
70	0xbcf4db34	-0.02988968
71	0xbbba9a57	-0.0056946683
72	0x3d0052f8	0.031329125
73	0xbd11454b	-0.035466474
74	0xbca9d567	-0.020731641
75	0xbd06f55a	-0.03294883
76	0x3c496ff5	0.012294759
77	0x3c2f7375	0.010708679
78	0x3d0d9eb0	0.034575164
79	0xbc8a3871	-0.016872616
80	0x3d2733a8	0.040820748
81	0x3cfea995	0.031086722
82	0x3c97641b	0.018480351
83	0x3cb3629f	0.021897612
84	0xbcb5979a	-0.022167016
85	0x3bd311b5	0.00644132
86	0x3d1a8cfe	0.037732117
87	0x3d0017b4	0.031272605
88	0x3bebc181	0.0071946983
89	0xbb9567d6	-0.0045594973
90	0x3c5c9857	0.013464055
91	0x3c9aa710	0.01887849
92	0xbcc92261	-0.024552526
93	0x3c24e3cc	0.010064077
94	0x3c53d3bd	0.0129289
95	0x3c873179	0.016503083
96	0x3c273d79	0.010207527
97	0x3c9b2f37	0.018943412
98	0x3cda2eca	0.026633639
99	0xbb2d7134	-0.002646518
100	0x3ced213c	0.028946511
101	0x3d0a12d1	0.03370935
102	0x3b933d35	0.0044933804
103	0x3cde6ada	0.02715056
104	0x3bf31bdb	0.007419092
105	0xbbc0ac9d	-0.005879952
106	0x3cae326e	0.021264281
107	0xbbcbe81c	-0.006222738
108	0xbd064e8b	-0.03278975
109	0xbcc09593	-0.023508823
110	0xbc87db05	-0.016583929
111	0xbba38b70	-0.0049909875
112	0x3c568e07	0.013095385
113	0xbca4a2b3	-0.020097112
114	0x3c1c51a8	0.009540953
115	0x3ca90f5d	0.020637209
116	0x3cc9a370	0.024614066
117	0xbb4fa00b	-0.0031681086
118	0xba2b0b7a	-0.00065248425
119	0xbb8d5651	-0.0043132682
120	0xbb7a8448	-0.0038225818
121	0x3d075a1a	0.033044912
122	0xbc52be03	-0.012862685
123	0x3b26543e	0.0025379802
124	0x3d0210af	0.031754192
125	0xbc995cf6	-0.018721085
126	0xbc4b02fb	-0.012390847
127	0xbd0f4e98	-0.034987062
128	0xbd191097	-0.037369337
129	0x3bc6b7c1	0.0060643856
130	0xbb8ba420	-0.0042615086
131	0xbcb5f003	-0.022209173
132	0xbc795283	-0.015217426
133	0xbce910f0	-0.02845046
134	0x3c5ce4d1	0.013482288
135	0x3cbaa39c	0.022783093
136	0xbcc8a7dd	-0.024494106
137	0x3c679995	0.014135738
138	0x3ccd575a	0.025066067
139	0x3cf23a36	0.029568773
140	0x3c022a60	0.007944673
141	0xb9020368	-0.00012399035
142	0xbc385943	-0.01125175
143	0xbce842a8	-0.028352097
144	0xbc9dc914	-0.01926092
145	0x3b582031	0.0032978172
146	0x37e4ce07	2.7275657e-05
147	0x3ba6a93d	0.0050860927
148	0xbc0e0dd2	-0.008670287
149	0xbc856466	-0.016283225
150	0xbb26e5d1	-0.002546657
151	0x3b2f7731	0.0026773924
152	0xbc8adaf8	-0.016950116
153	0x3cdfdad3	0.027326023
154	0x3cc5f96a	0.024166781
155	0x3c638c14	0.013888378
156	0xbcd4097e	-0.025883432
157	0xbd180003	-0.037109386
158	0x3bff2b4c	0.007787144
159	0xbd070585	-0.03296425
160	0x3cbc4644	0.022982724
161	0xbcde13c3	-0.027109032
162	0xbcc4eb7a	-0.024038065
163	0xb93b7bec	-0.00017879874
164	0xbca106e0	-0.019656599
165	0x3bdd4189	0.006752197
166	0x3cc1ff26	0.023681235
167	0xbbbd54bf	-0.005777925
168	0x3cf49e2a	0.029860575
169	0x3c9c41c9	0.019074338
170	0xbcfbda8f	-0.030743865
171	0xbc53788d	-0.0129071595
172	0x3cac8f80	0.02106452
173	0xbd0591b9	-0.032609675
174	0xbc6b32ea	-0.014355401
175	0xbb475f62	-0.0030421843
176	0xbc9743c6	-0.018464934
177	0xba666729	-0.0008789176
178	0xbcb4c3b1	-0.02206597
179	0xbd0e727c	-0.03477715
180	0xbd006ac0	-0.031351805
181	0x3ce04c82	0.027380232
182	0x38578ef6	5.1393137e-05
183	0x3c4af60b	0.012387763
184	0x3c819291	0.015816959
185	0x3d0fcc3a	0.035106875
186	0x3cd5c868	0.026096538
187	0x3ce9e7b5	0.02855287
188	0xbcaa0cf3	-0.020758128
189	0xbc9dbc93	-0.019254958
190	0xbbb49557	-0.0055109668
191	0xbbedd52c	-0.007258078
192	0x3a3c7a42	0.00071898487
193	0x3d0af310	0.03392321
194	0xbcf1a0ac	-0.02949556
195	0xbbafc840	-0.005364448
196	0xbcf23c7e	-0.02956986
197	0xbb9267f7	-0.00446796
198	0x3cec73f3	0.028863883
199	0xbb94b6e4	-0.004538404
200	0x3cd47b00	0.025937557
201	0x3d1b3fc7	0.03790262
202	0x3cabf58f	0.020991115
203	0x3d0e048a	0.034672298
204	0x3cf47cab	0.029844603
205	0xbc8cdc5b	-0.017194917
206	0x3cb84214	0.022492446
207	0xbc19caac	-0.0093867
208	0x3cbd35b8	0.023096904
209	0x3ccc6921	0.024952473
210	0xbceef921	-0.029171528
211	0xbc90065e	-0.017581161
212	0xbc524f6b	-0.0128363175
213	0xbc3c6859	-0.011499488
214	0x3c9523cc	0.018205546
215	0x3cea06d6	0.028567713
216	0x3cc3d20d	0.023903871
217	0xb9cf92ba	-0.00039591437
218	0xbc0aff1a	-0.0084836725
219	0x3d234145	0.039857168
220	0x3d0e1a74	0.034693196
221	0xbc9c4aac	-0.019078575
222	0x3c2d8b35	0.010592272
223	0xbc6719fb	-0.014105315
224	0xbcab2eed	-0.0208964
225	0xbcee5565	-0.029093454
226	0xbcae288e	-0.021259572
227	0x3c1aeaad	0.009455365
228	0xbc101add	-0.008795467
229	0x3c3173ca	0.010830829
230	0x3cdc0782	0.026859049
231	0x3ccccd1b	0.025000146
232	0x3cfc1de5	0.030775974
233	0x3c22f774	0.009946693
234	0x3c6ef6e9	0.014585235
235	0x3b4f960e	0.0031675133
236	0x3c992692	0.01869515
237	0xbcdf9013	-0.02729038
238	0x3d062ef4	0.03275962
239	0x3c8d3467	0.017236901
240	0x3d035ec5	0.0320728
241	0xbcbd5e88	-0.023116365
242	0xbcae2ab8	-0.021260604
243	0x3b3c08fb	0.0028691876
244	0xbcda921d	-0.026681
245	0x3c95c540	0.018282533
246	0xbb02b94b	-0.001994687
247	0xbd0e8269	-0.034792338
248	0x3789ada7	1.6412536e-05
249	0xbcd8ac6b	-0.026449403
250	0x3c2a4f90	0.010394946
251	0x3d21f978	0.039544553
252	0xbc332cce	-0.010935975
253	0xbcc298d6	-0.023754518
254	0xbcfd171e	-0.030894812
255	0xbcf5b6f6	-0.02999447

base_model.model.distilbert.transformer.layer.0.attention.k_lin.lora_B.weight f4 [768, 6]
0	0xbb1eed71	-0.0024250413
1	0xbb487c41	-0.003059164
2	0x3b5d4e33	0.0033768534
3	0xbb9366c5	-0.004498335
4	0x3a576ddb	0.0008217969
5	0xbb9275dc	-0.0044696163
6	0xbb2d1c2c	-0.0026414497
7	0xba66183c	-0.0008777415
8	0xba00c7f3	-0.0004912607
9	0xb8fb76a9	-0.00011990715
10	0xb8b6a9ca	-8.710062e-05
11	0xbaeb0631	-0.0017930922
12	0xbaedcf2e	-0.0018143409
13	0xbb2afb0a	-0.0026089572
14	0x3b28a73f	0.0025734452
15	0xba3bf531	-0.000717002
16	0xb9ad7043	-0.00033080773
17	0xbb361392	-0.002778266
18	0xba69c227	-0.00089171756
19	0x39cc2c19	0.00038942767
20	0x3a260a85	0.0006333965
21	0x3b11a971	0.002222624
22	0xba4cf77b	-0.000781886
23	0xb9bcc261	-0.00036002978
24	0x3a0a3558	0.0005272231
25	0xb71df87b	-9.415783e-06
26	0xba094037	-0.0005235704
27	0x3abb757b	0.001430198
28	0x3ac3afa0	0.001492966
29	0x3a282409	0.0006414061
30	0xba21bdd1	-0.00061699474
31	0xbb7aec84	-0.0038287947
32	0x3b1c157f	0.0023816524
33	0xbae1a771	-0.0017216039
34	0x3a8b3567	0.0010620774
35	0xbb473a73	-0.0030399829
36	0x3a780b2c	0.0009462114
37	0xbabb37eb	-0.0014283633
38	0x39d36dac	0.00040326768
39	0x387aa250	5.975581e-05
40	0xbb4aea39	-0.0030962361
41	0xbb21de14	-0.002469902
42	0xb9ff17c5	-0.000486551
43	0xbaf345ad	-0.0018560194
44	0x3b4dc46a	0.003139759
45	0xbb3e886d	-0.0029073015
46	0x39ce25e7	0.0003931962
47	0xbb10051a	-0.0021975697
48	0xbabbe056	-0.0014333825
49	0xbae76d60	-0.0017656498
50	0x3b38e26d	0.0028211132
51	0xbb96bfe1	-0.0046005105
52	0x3a3462c0	0.000688117
53	0xbb383454	-0.0028107362
54	0xb81cf68c	-3.7422913e-05
55	0x3b27fa95	0.0025631536
56	0xbac242a2	-0.0014820884
57	0xba1c9e50	-0.0005974518
58	0xb91a04b0	-0.0001468833
59	0x3a9f6317	0.0012160268
60	0x3b16b475	0.0022995744
61	0x3b5ba292	0.0033513648
62	0xbaf09222	-0.0018354098
63	0x39b5517f	0.0003458373
64	0x385fc461	5.3350235e-05
65	0x3b381b55	0.0028092463
66	0x3ab5a614	0.0013858699
67	0x3b81fe75	0.003967101
68	0xbb576247	-0.0032864974
69	0x3b24ef62	0.0025167097
70	0xbad01d02	-0.0015877786
71	0x3b664eb0	0.0035142116
72	0x3adcd206	0.001684726
73	0x3b68918b	0.003548714
74	0xbb1b4452	-0.0023691845
75	0x3ae698d4	0.0017593154
76	0xba9b6d4f	-0.0011858138
77	0x3b240a81	0.0025030675
78	0x399d777c	0.00030034396
79	0xb86e5aa4	-5.6828037e-05
80	0x3ad03aca	0.0015886661
81	0x3b47bbbf	0.0030476896
82	0x3a1a0cd8	0.00058765477
83	0xba1a017b	-0.00058748544
84	0xbb563236	-0.0032683737
85	0xbb850f4d	-0.004060662
86	0x3b8117a3	0.0039395853
87	0xbb8b182b	-0.0042448244
88	0x3a9436ec	0.0011307872
89	0xbb8b6e31	-0.004255079
90	0xba07e048	-0.0005183262
91	0xbb9e4b04	-0.00483072
92	0x3ba73d30	0.0051037297
93	0xbbc106fd	-0.0058907256
94	0x3993daeb	0.00028201131
95	0xbb9ccfc0	-0.004785508
96	0xb8492f91	-4.7966434e-05
97	0xba4edab8	-0.0007890868
98	0xbb04b30a	-0.0020248317
99	0x3ac31e95	0.0014886433
100	0xbada439e	-0.0016652232
101	0x3a76b310	0.00094108377
102	0xbafea581	-0.0019427986
103	0xbb690b97	-0.0035559887
104	0x3afa133a	0.0019079216
105	0xbb14e0f3	-0.0022717088
106	0xb9d7a370	-0.00041129766
107	0xbb4623cc	-0.003023374
108	0xbab0b982	-0.001348302
109	0xbb7e1b08	-0.0038773436
110	0x3b61b7fe	0.0034441943
111	0xbb4940fb	-0.0030708897
112	0x3a5ba1b2	0.00083782815
113	0xbad81045	-0.0016484341
114	0xbb02a610	-0.0019935407
115	0xbbad9324	-0.0052970815
116	0x3b843af1	0.0040353467
117	0xbb93c5a0	-0.0045096427
118	0xb999d711	-0.0002934267
119	0xbb621f39	-0.0034503473
120	0xb907a79d	-0.00012937044
121	0xba880a0c	-0.0010378971
122	0x3a0e6395	0.0005431709
123	0x3a217f27	0.000616061
124	0x3a8c0b09	0.0010684441
125	0xb9e2247d	-0.00043133265
126	0x3acec6e1	0.0015775823
127	0xb916c08a	-0.00014376841
128	0x3aabdeb0	0.0013112631
129	0xb8514112	-4.9890084e-05
130	0x3aef91c8	0.0018277699
131	0xba815c55	-0.0009869436
132	0xb79b35c1	-1.8502471e-05
133	0x3947becd	0.00019049198
134	0xbb18b8d8	-0.0023303535
135	0x3ae867e5	0.0017731158
136	0x3a2dfad9	0.00066368055
137	0xba973b9e	-0.0011538153
138	0x3b2bd1bc	0.002621754
139	0x3b3aa712	0.002848093
140	0xbb90a466	-0.004414129
141	0x3b91d7ac	0.004450759
142	0x3b029bb5	0.0019929234
143	0x3b8b01e7	0.00424217
144	0xba7c561e	-0.00096258696
145	0xbb211be0	-0.0024583265
146	0x3b9986dd	0.0046852664
147	0xbaec5143	-0.0018029589
148	0xb9890cb5	-0.00026140144
149	0xbb3bd6ae	-0.0028661895
150	0xbadf1280	-0.0017019063
151	0xbad8b594	-0.0016533607
152	0x3b2cc7ac	0.002636413
153	0xbb42fb60	-0.0029751882
154	0x3ab50002	0.0013809206
155	0xbae0209b	-0.0017099561
156	0x3a5b33ba	0.0008361895
157	0x3af549c6	0.0018714003
158	0xbb314691	-0.0027050117
159	0x3b02d610	0.0019964017
160	0xbb07bcef	-0.0020711978
161	0x3b292ffa	0.002581595
162	0x39cdcc84	0.00039253023
163	0xb9cb491c	-0.00038773648
164	0xb996aaf4	-0.000287376
165	0xbae3445e	-0.0017339101
166	0x3ae55479	0.0017496488
167	0x3a48dda6	0.0007662423
168	0xba4b4428	-0.00077539915
169	0xbab513d6	-0.0013815116
170	0x38a3ac8f	7.804587e-05
171	0xba97016c	-0.001152081
172	0x3a389461	0.0007041153
173	0x392c4a2e	0.00016430832
174	0x3a9f2ac8	0.0012143487
175	0x3b8dff04	0.0043333787
176	0xbb915d43	-0.0044361665
177	0x3ba26110	0.0049554184
178	0xba08eb29	-0.000522303
179	0x3b6c9673	0.0036100417
180	0xba21b709	-0.0006168937
181	0xbb47523c	-0.0030414006
182	0x3b427b8d	0.0029675693
183	0xbb87894b	-0.0041362396
184	0xba9493d8	-0.0011335565
185	0xbb1db2b4	-0.0024062814
186	0xbaf04972	-0.0018332435
187	0xbbb21356	-0.005434434
188	0x3b8e1190	0.0043355897
189	0xbba288d8	-0.0049601607
190	0x3a3d981e	0.0007232445
191	0xbb5654ef	-0.0032704433
192	0xb9bb817a	-0.00035763887
193	0xba2734a4	-0.00063783885
194	0xbb09581b	-0.0020957056
195	0x3af8bf65	0.0018977938
196	0x3a0e2d66	0.0005423635
197	0x3acbb265	0.0015540837
198	0x395502a0	0.00020314241
199	0xb9f7fbb7	-0.00047299053
200	0xba052d19	-0.00050802674
201	0x3b4487df	0.0029988212
202	0xbb3f8bed	-0.002922769
203	0xba8945f3	-0.0010473117
204	0xbafc0ef9	-0.0019230536
205	0xbb19cb29	-0.002346704
206	0x3b7626ad	0.0037559674
207	0xbb8ca95b	-0.0042926497
208	0xbb0bd9ab	-0.0021339457
209	0xbaf0986a	-0.001835597
210	0xbb2368aa	-0.002493421
211	0xbb68dd2b	-0.0035532217
212	0x3b9320f2	0.0044900114
213	0xbb867fca	-0.004104589
214	0xba07adaf	-0.0005175722
215	0xbb9e4dd9	-0.0048310575
216	0xbb15ce08	-0.00228584
217	0xb8c65ed0	-9.459036e-05
218	0x3990bd57	0.0002760689
219	0x3b63dad9	0.0034767895
220	0xbb056df7	-0.0020359734
221	0x3886cfcc	6.428323e-05
222	0x3a850797	0.0010149357
223	0x3a2f8283	0.0006695168
224	0xba18f913	-0.0005835455
225	0xb8d9426b	-0.00010359738
226	0xba33dc36	-0.0006861122
227	0xb8967c8e	-7.1757575e-05
228	0xba199915	-0.0005859298
229	0xbb4bab84	-0.0031077573
230	0x3b6d33a9	0.0036194122
231	0xbb9e7782	-0.004836024
232	0xba02c5ce	-0.00049885816
233	0xbb779eca	-0.0037783855
234	0x3ab801f8	0.0014038673
235	0x3b1eaee7	0.0024213137
236	0xbb0075df	-0.0019601507
237	0x398112b9	0.00024618747
238	0x3a8d028d	0.0010758206
239	0x3b62fb2b	0.003463457
240	0x3aa2661a	0.0012390048
241	0x3b3fafc7	0.0029249059
242	0xbb5b5fbc	-0.003347381
243	0x3b35ac7d	0.002772122
244	0xbab3e7ff	-0.0013725756
245	0x3b414e66	0.0029496192
246	0xbac287a8	-0.0014841454
247	0xbb514cdf	-0.0031936688
248	0x3b90e1d6	0.004421453
249	0xbb4e0ef4	-0.0031442018
250	0xb9e55c32	-0.00043746975
251	0xbb188ef0	-0.0023278557
252	0x3ac5123a	0.0015035339
253	0x3b973ebe	0.0046156337
254	0xbb566730	-0.0032715313
255	0x3b84a264	0.004047679

base_model.model.distilbert.transformer.layer.0.attention.out_lin.lora_A.weight f4 [6, 768]
0	0xbc446177	-0.011986128
1	0x3c84e5f2	0.016222928
2	0xbcea8a7a	-0.028630484
3	0xbcc0ea9f	-0.023549376
4	0x3ce58ed2	0.028022204
5	0xbc0d49aa	-0.00862352
6	0x3bfb43b1	0.0076679816
7	0xbc9a5553	-0.018839514
8	0xbc1ef4c9	-0.009701916
9	0xbc10c3af	-0.008835717
10	0xbc7229e3	-0.014780494
11	0xbcd5d4f9	-0.02610253
12	0x3ccf27e4	0.025287576
13	0x3cbe73de	0.02324861
14	0x3b33473a	0.0027355687
15	0x3c7cf8da	0.01544019
16	0x3b8ee1ba	0.004360405
17	0xbc8f2652	-0.017474327
18	0xbb909def	-0.0044133584
19	0x3d041df9	0.032255147
20	0xbd1dc109	-0.03851417
21	0x3d0be9c1	0.034158472
22	0x3c21089d	0.009828714
23	0x3d192c60	0.037395835
24	0xbc3fe0c9	-0.011711308
25	0xbccf224f	-0.025284914
26	0xbcd1c8ed	-0.025608504
27	0xbcd01eff	-0.025405405
28	0xbd046df1	-0.03233141
29	0x3bc2cdfc	0.0059449654
30	0x3c90a714	0.017657794
31	0x3b5d85c4	0.0033801654
32	0xbc5c3adc	-0.013441768
33	0x3c38d55a	0.011281336
34	0xbbbd6d99	-0.0057808873
35	0x3ccee395	0.025255004
36	0x3ae52056	0.001748095
37	0xbcdea4a1	-0.02717811
38	0x3c73f281	0.01488936
39	0x3caa0255	0.020753065
40	0xbd06e59c	-0.032933816
41	0xbc90ad65	-0.017660806
42	0xbd096263	-0.033541095
43	0x3ca1ce62	0.019751731
44	0xbbae92f6	-0.0053275777
45	0xbd151ecc	-0.036406323
46	0xbd170f44	-0.036879793
47	0xbd17937a	-0.03700588
48	0xbc0245f2	-0.007951247
49	0x3d0efd49	0.03490952
50	0x3ce90b0c	0.02844765
51	0x3bae74f5	0.005324001
52	0xbd1560ad	-0.03646915
53	0x3c376fa1	0.011196048
54	0xbcd98b94	-0.026555814
55	0x3d1618d8	0.036644787
56	0xbc44ea35	-0.01201873
57	0xbbb4266a	-0.0054977434
58	0xbbbf69c6	-0.0058414666
59	0x3c80b2bf	0.015710233
60	0xbcc56e5d	-0.024100477
61	0x3ca04d15	0.019568006
62	0xbd151525	-0.036397118
63	0x3c40a1da	0.011757338
64	0xbd1d9ad5	-0.038477737
65	0x3c71ccac	0.01475827
66	0x3cface94	0.030616082
67	0xbd0d9f60	-0.03457582
68	0xbb80aa28	-0.003926534
69	0xbc6381b1	-0.013885901
70	0x3c7eed8f	0.015559568
71	0x3abcda14	0.0014408254
72	0x3bfbe331	0.0076869954
73	0x3b423188	0.0029631574
74	0xbd1665ea	-0.036718287
75	0x3bf914cc	0.007601356
76	0x3cab5611	0.020915063
77	0x3cca626a	0.02470513
78	0xbd066c82	-0.032818325
79	0xbd179d7c	-0.037015423
80	0xbc4d8137	-0.012543014
81	0xbc1a5b61	-0.0094212005
82	0x3bd94cb7	0.0066314596
83	0xbd0cfbbc	-0.03441976
84	0x3bc2e794	0.0059480164
85	0xbc5ed4f1	-0.013600574
86	0xbcda4223	-0.026642865
87	0x3cfb4a7f	0.030675171
88	0x3c692adc	0.01423141
89	0xbcdd1be5	-0.02699084
90	0x3d03e79c	0.0322033
91	0x3cfc0687	0.030764831
92	0xbbf0d1f7	-0.0073492485
93	0xbc834f36	-0.016028982
94	0x3ca95013	0.020668065
95	0x390ea99c	0.0001360536
96	0xbbfa6a04	-0.0076420326
97	0x3c7e49cc	0.015520524
98	0x3c336b2d	0.010950846
99	0xbc5aae15	-0.013347168
100	0xbbd4ee35	-0.006498123
101	0x3aed6616	0.0018112089
102	0xbc0ffb63	-0.008787963
103	0xbb3ca80c	-0.0028786687
104	0x3c910ece	0.017707255
105	0xbc99b06e	-0.018760886
106	0x3ce2cfb6	0.027686935
107	0x3b48777f	0.0030588803
108	0x3c460a25	0.01208738
109	0x3cb3ba66	0.021939468
110	0x3c71d0f9	0.014759296
111	0x3c53e5f2	0.012933241
112	0xbbc4f685	-0.0060108327
113	0x3cdb5626	0.026774477
114	0x3c9ede01	0.01939297
115	0x3a2803f9	0.00064092834
116	0x3cd858db	0.026409557
117	0x3cc2cb35	0.023778537
118	0xbcb95f29	-0.022628384
119	0x3c53b5ec	0.0129217915
120	0x3cae376b	0.02126666
121	0x3cbdb9e1	0.023159923
122	0xbce542b4	-0.027985908
123	0x3bfa9d6f	0.007648162
124	0xbc682833	-0.0141697405
125	0xbc986129	-0.018601017
126	0x3c9fc611	0.019503625
127	0x3c2ea48b	0.010659347
128	0x3d025c70	0.031826437
129	0x3d0d0648	0.03442982
130	0x3d08c64f	0.033392247
131	0xbbbd720a	-0.005781417
132	0xbc9f1b82	-0.019422296
133	0xbd075991	-0.0330444
134	0x39f70149	0.0004711247
135	0xbba47ecf	-0.0050199996
136	0xbc820e70	-0.015876025
137	0xbd1c5e45	-0.03817584
138	0x3c34625d	0.01100978
139	0xbc578761	-0.013154835
140	0xbcb13b21	-0.02163464
141	0xbc3b82c6	-0.011444753
142	0xbbd37d5c	-0.006454153
143	0x3d01de08	0.031705886
144	0x3ccac64e	0.024752762
145	0xbd03ba33	-0.032159995
146	0xbc509f06	-0.012733227
147	0x3ccdd5d3	0.025126373
148	0x3d00dc6a	0.031460203
149	0x3c914232	0.01773176
150	0x3b8b588c	0.004252499
151	0xbc84c23f	-0.016205905
152	0xbd16a8da	-0.036782123
153	0x3d1e4d12	0.03864772
154	0xbc958d85	-0.018255958
155	0xbc8a7f9d	-0.016906554
156	0x3b388345	0.0028154415
157	0xbcd411a7	-0.025887324
158	0xbcc5aa3b	-0.024129024
159	0x3cdc3a74	0.026883341
160	0xbc5ba775	-0.013406624
161	0xbbebfbb8	-0.007201638
162	0x3c95a868	0.018268779
163	0x3c4eb54c	0.012616467
164	0x3d00a3ee	0.031406336
165	0x3be4dd51	0.006984391
166	0x3cde0e39	0.027106391
167	0x3cb5728d	0.022149349
168	0x3d01ff11	0.03173739
169	0x3bbb3ea9	0.005714257
170	0xbb480939	-0.0030523075
171	0xbc8b3c27	-0.016996456
172	0xbc22b1d3	-0.009930092
173	0x3c9ae4b3	0.01890788
174	0x3cefc38f	0.029268054
175	0xbd0c4719	-0.03424749
176	0x3cc4ae49	0.024008887
177	0xbce380ee	-0.02777144
178	0xbcb533b0	-0.022119373
179	0x3ba525b0	0.005039893
180	0xbc892d00	-0.01674509
181	0xbd00b1ac	-0.03141944
182	0xbc4f73c7	-0.012661881
183	0x3cfe1360	0.031015098
184	0xbab9a93d	-0.0014164817
185	0x3b2188ee	0.0024648267
186	0x3c69c31c	0.014267709
187	0xbc96e8a6	-0.018421482
188	0xbcbc0e6b	-0.022956094
189	0x3b9baa80	0.00475055
190	0xbcd3994d	-0.025829935
191	0xbba56f76	-0.0050486876
192	0x3cca110a	0.024666328
193	0xbaede55d	-0.0018150021
194	0x3c1e957b	0.009679194
195	0x3b84a53d	0.0040480183
196	0x3c9f8aac	0.019475304
197	0x3b5bd86a	0.003354574
198	0xbc5df706	-0.0135476645
199	0x3ca8902b	0.020576557
200	0xbbe8b10d	-0.007101184
201	0xbc6c0da4	-0.014407549
202	0x3b3f1113	0.0029154464
203	0x3d0f8185	0.03503563
204	0xbcd2fc0e	-0.025754955
205	0x3d0bf9cf	0.034173783
206	0xbd0565b0	-0.03256768
207	0xbb0e1d27	-0.0021684857
208	0x3bb3c578	0.0054861866
209	0xbb3f9c09	-0.0029237291
210	0x3cb7d738	0.022441491
211	0xbc8d54f7	-0.017252428
212	0xbcfb30b6	-0.030662876
213	0xbd18c194	-0.037293985
214	0xbd00c36a	-0.03143636
215	0xbc18da2b	-0.009329359
216	0xbc643aef	-0.0139300665
217	0xbd0c0df6	-0.034193
218	0xbd12eaba	-0.035868384
219	0xbcc635b7	-0.024195535
220	0xbb9f3ef1	-0.004859798
221	0xbc7987c9	-0.015230128
222	0xbc97d234	-0.01853285
223	0x3ccbbc7f	0.024870155
224	0xba70bf04	-0.0009183737
225	0xbc540064	-0.012939546
226	0x3ca8c13a	0.02059995
227	0xbcfea8c7	-0.031086339
228	0x3c573b54	0.0131367035
229	0xbccd90c4	-0.025093444
230	0xbccc5aa4	-0.024945565
231	0xbcdf490f	-0.027256517
232	0xbcd2d6b1	-0.025737138
233	0xbca037ef	-0.019557921
234	0xbbb35e45	-0.0054738843
235	0xbcbdb9d5	-0.0231599
236	0xbcd602a6	-0.02612431
237	0x3a067a6e	0.0005129938
238	0x3cbaabe5	0.022787044
239	0xbcd550a6	-0.026039433
240	0x3c9836fe	0.01858091
241	0x3c8e2b94	0.017354764
242	0xbc945566	-0.018107127
243	0x3bca3563	0.006170915
244	0xba875046	-0.0010323606
245	0xbb73cc06	-0.0037200465
246	0xbc804a8a	-0.015660543
247	0xbd0ab5a7	-0.033864643
248	0x3cea76a2	0.028621022
249	0xb83e08b8	-4.530765e-05
250	0xbc7f13d1	-0.015568689
251	0xbb0f92a1	-0.0021907466
252	0x3cff84e8	0.031191304
253	0x3c6f896f	0.014620169
254	0xbae57acb	-0.0017507909
255	0xbc2a7399	-0.010403537

base_model.model.distilbert.transformer.layer.0.attention.out_lin.lora_B.weight f4 [768, 6]
0	0xbab031fb	-0.001344263
1	0x3a801adb	0.0009773629
2	0xb84aec42	-4.8380585e-05
3	0x3a185160	0.00058104657
4	0x39311ad8	0.00016890035
5	0xb93e91f9	-0.00018174191
6	0x3a2b85fe	0.0006543099
7	0x3a1e3d1c	0.00060363277
8	0xba6f496b	-0.00091280666
9	0xb78b4dcd	-1.660632e-05
10	0xbad89965	-0.0016525207
11	0xba6bfa09	-0.0009001797
12	0xb92a9cb0	-0.00016270834
13	0x3aaebdd0	0.0013331715
14	0xba992dc5	-0.0011686614
15	0xb96f5b19	-0.00022826753
16	0x3aa813c1	0.001282327
17	0xba020dcd	-0.0004961163
18	0xbacfe368	-0.0015860619
19	0xba2906a7	-0.00064478297
20	0xb947cfed	-0.00019055577
21	0x3a7792dd	0.00094441866
22	0x3792187f	1.7415963e-05
23	0x3a3e0242	0.0007248261
24	0x3a20ea2c	0.000613841
25	0xbaa0e808	-0.0012276182
26	0xbb1fc591	-0.0024379233
27	0xbae5f2fc	-0.0017543728
28	0x3b0eefe2	0.0021810462
29	0xbad8c7b7	-0.0016539012
30	0x39bb9aeb	0.00035782842
31	0x389702bb	7.20075e-05
32	0x3ad9f2e7	0.0016628177
33	0x3a08151e	0.0005191135
34	0xba6613e1	-0.0008776766
35	0x3a0937ce	0.0005234451
36	0xbb0cb2a7	-0.002146879
37	0x3af0e36c	0.0018378324
38	0x3b52a62b	0.00321425
39	0x3b16c60d	0.002300623
40	0xbb25622d	-0.002523552
41	0x3b09c432	0.0021021483
42	0xbb73a8fd	-0.0037179582
43	0x3b4ec600	0.0031551123
44	0x3b831448	0.0040002204
45	0x3b9e19ba	0.004824844
46	0xbb9f9230	-0.004869722
47	0x3b69b77d	0.0035662346
48	0xbaed27a3	-0.0018093478
49	0x38b0fa85	8.438997e-05
50	0x3af434b9	0.0018631435
51	0x3aa71e28	0.0012750076
52	0xb969e7df	-0.0002230699
53	0x3ab30635	0.0013658466
54	0xba408f69	-0.00073455885
55	0x3aa3ceea	0.0012497578
56	0x3b2afc0c	0.0026090173
57	0x3a729aa7	0.00092546124
58	0xbb2696d7	-0.0025419497
59	0x3a7ee0e2	0.0009722841
60	0x3a4e25a2	0.0007863884
61	0xba3616cd	-0.00069461466
62	0xba15efaf	-0.00057196146
63	0xbaf3dcc7	-0.0018605225
64	0x3b133bca	0.0022466057
65	0xbab30559	-0.001365821
66	0xbb4354d3	-0.0029805198
67	0x3b591edf	0.0033129973
68	0x3b6e5169	0.0036364442
69	0x3b80de9e	0.003932788
70	0xbb88eb90	-0.004178472
71	0x3b5af7ed	0.0033411935
72	0xba8e16af	-0.00108405
73	0x3a628ae2	0.0008641911
74	0x3b530e6e	0.0032204646
75	0x3b2a0c81	0.0025947394
76	0xbaeed029	-0.0018219996
77	0x3b0d3dd5	0.0021551747
78	0xb8b1878d	-8.465266e-05
79	0xbb10fb84	-0.0022122571
80	0xbb14f753	-0.0022730425
81	0xbb2ca510	-0.0026343502
82	0x3b2d5a63	0.002645158
83	0xbaf2e301	-0.0018530787
84	0x3b15c7d6	0.0022854707
85	0xbb372f5e	-0.0027951817
86	0xbb0e8146	-0.0021744533
87	0xbb21416b	-0.0024605643
88	0x3b61264f	0.003435511
89	0xbb2a127b	-0.0025950957
90	0xbb67fd87	-0.0035398917
91	0x3b45abc3	0.0030162192
92	0x3b889833	0.004168534
93	0x3b78c45e	0.003795884
94	0xbb80546d	-0.0039163143
95	0x3b8f74b9	0.004377928
96	0x3a732a11	0.0009275983
97	0xba97abf4	-0.0011571632
98	0x39ff7e8e	0.0004873168
99	0xba0cc995	-0.0005370614
100	0xb99ed687	-0.00030295944
101	0xb9fa6f80	-0.0004776679
102	0xbb5f508f	-0.0034075116
103	0x3b62c707	0.0034603493
104	0x3b84e784	0.004055919
105	0x3b6b9dc1	0.0035952183
106	0xbb873585	-0.004126253
107	0x3b7e11ff	0.003876805
108	0xbb6fdc64	-0.003659987
109	0x3bbe0258	0.0057986192
110	0x3b2201ce	0.0024720314
111	0x3b6dc9e7	0.0036283673
112	0xbb2ed88b	-0.0026679363
113	0x3b79ab65	0.0038096544
114	0xbb62234a	-0.0034505897
115	0x3b4b71ff	0.0031043289
116	0x3b1dbb58	0.0024067964
117	0x3b3dc2be	0.0028955187
118	0xbb8146a0	-0.0039451867
119	0x3b2c797d	0.002631753
120	0xbb7e7d64	-0.0038832063
121	0x3ba004ef	0.0048834006
122	0x3b8711a6	0.004121977
123	0x3b52a457	0.0032141411
124	0xbb83e99d	-0.0040256516
125	0x3b0fe7e5	0.0021958288
126	0x36cac37e	6.0428274e-06
127	0xb8b8ef61	-8.8183915e-05
128	0xb8d422cd	-0.0001011543
129	0xba425788	-0.0007413556
130	0x3ab2f858	0.0013654334
131	0x38629abd	5.402671e-05
132	0xb88c47ad	-6.689071e-05
133	0xb98a8ea5	-0.0002642769
134	0x3a423c0b	0.000740946
135	0xb920f7be	-0.0001535108
136	0x3a03d05d	0.0005028302
137	0x39e8de55	0.0004441614
138	0x3acd2b6a	0.0015653197
139	0xbb3a665d	-0.002844236
140	0xbb47829f	-0.0030442846
141	0xbb2719a9	-0.0025497472
142	0x3aecbd8d	0.0018061862
143	0xbb2a38f0	-0.0025973879
144	0xb94fb70e	-0.00019809252
145	0x3a6e0c47	0.0009080809
146	0xba845daf	-0.0010098721
147	0x398cf6c0	0.00026886724
148	0x3a24a47e	0.0006280615
149	0xb8235df0	-3.8949715e-05
150	0x3a31416f	0.00067617645
151	0xb9d12f26	-0.00039898715
152	0xbb060b0b	-0.002045336
153	0xba524953	-0.00080217904
154	0x3a85821a	0.0010185868
155	0xbaeb6c61	-0.0017961377
156	0x3a9f8900	0.0012171566
157	0xbb079e88	-0.0020693857
158	0xba49c81b	-0.00076973595
159	0xba80125b	-0.0009771095
160	0x3b07b4b0	0.0020707063
161	0xbadc4e72	-0.0016808046
162	0x3b73cf7a	0.0037202523
163	0xbb9e9f95	-0.004840801
164	0xbb936b09	-0.0044988436
165	0xbb80e13f	-0.0039331014
166	0x3baccb88	0.0052732863
167	0xbb4e966a	-0.003152276
168	0xbb69ed18	-0.0035694297
169	0x3bb1114b	0.005403673
170	0x3b88dd0f	0.004176743
171	0x3b62c328	0.0034601185
172	0xbb887c5e	-0.0041652163
173	0x3b626a96	0.0034548393
174	0x3af2855c	0.0018502879
175	0xbb1fb327	-0.0024368258
176	0xbb629389	-0.00345728
177	0xbb0d5322	-0.0021564444
178	0x3b16555a	0.0022939057
179	0xbb211249	-0.002457755
180	0x3af260ee	0.0018492022
181	0x3a5d8600	0.00084504485
182	0xbac720ba	-0.0015192248
183	0xbabf4204	-0.0014591818
184	0x3a814b54	0.0009864368
185	0xbb07c49b	-0.0020716551
186	0xbad4670c	-0.0016205027
187	0x3a649752	0.0008720058
188	0xba27583d	-0.0006383693
189	0x3a19fbb3	0.0005873993
190	0x3a15aa2b	0.0005709256
191	0x3a0b2c3f	0.00053090224
192	0xbac5d095	-0.001509207
193	0x3b1852e0	0.0023242757
194	0x3b046c28	0.0020206068
195	0x3af066d5	0.0018341193
196	0xbb5702a4	-0.003280797
197	0x3b0bca4f	0.0021330302
198	0x3b017563	0.0019753806
199	0xbb612e0d	-0.0034359724
200	0xbb2c676f	-0.0026306768
201	0xbaeba018	-0.0017976789
202	0x3af5c1f1	0.0018749816
203	0xbb16b8b6	-0.002299828
204	0x3aa9b25c	0.0012946832
205	0xb9b0938c	-0.00033679267
206	0x3abdf230	0.0014491733
207	0x395c3fd1	0.00021004608
208	0x39ea35b2	0.00044671964
209	0xba226d40	-0.0006196089
210	0xbb19051b	-0.002334899
211	0x3b4b9b9d	0.0031068095
212	0x3b64f920	0.003493853
213	0x3b36db64	0.0027901763
214	0xbb947b0e	-0.004531271
215	0x3b3db90f	0.0028949415
216	0x3adbaba0	0.0016759522
217	0xbaa1b68d	-0.001233773
218	0x38942829	7.06467e-05
219	0xba612ab5	-0.00085894327
220	0xba928405	-0.0011178261
221	0xb9e5c017	-0.00043821402
222	0xbabab756	-0.0014245312
223	0x3b138e2c	0.002251516
224	0x3a96f8d1	0.0011518245
225	0x3abad908	0.0014255354
226	0xbaf83dca	-0.0018939313
227	0x3a6b58ee	0.000897779
228	0x3a7c4f59	0.0009624861
229	0xba2c70d6	-0.0006578093
230	0xbafeefb2	-0.0019450097
231	0xbac7b7ae	-0.0015237236
232	0x3aae8016	0.0013313319
233	0xbae0e711	-0.0017158707
234	0x3a87bb24	0.0010355455
235	0xba953372	-0.001138313
236	0xbb39d098	-0.0028353091
237	0xbb064012	-0.0020484966
238	0x3ae26d40	0.0017274991
239	0xbad51b38	-0.0016258722
240	0x3abdb98e	0.0014474855
241	0xba3ed1ba	-0.00072791765
242	0x39d5629d	0.00040699998
243	0xbafb9aa1	-0.0019195863
244	0x3aeb623c	0.0017958353
245	0xba7a30f1	-0.0009544036
246	0x399d2d05	0.00029978916
247	0x3aad6b85	0.0013230896
248	0x3ae7dc15	0.0017689491
249	0x3a80f573	0.0009838775
250	0xba2dde0a	-0.00066325127
251	0x3a7113fb	0.0009196398
252	0x3afafb4d	0.001914838
253	0xbb06b186	-0.002055259
254	0xbb34fc13	-0.0027616068
255	0xbb14661f	-0.0022643877

base_model.model.distilbert.transformer.layer.0.attention.q_lin.lora_A.weight f4 [6, 768]
0	0x3d0b939f	0.03407633
1	0x3b9d6c33	0.004804158
2	0x3c82ff40	0.015990853
3	0xbc0e0f6d	-0.00867067
4	0xbca7210c	-0.0204015
5	0x3ce16064	0.027511783
6	0xbd083bc0	-0.033260107
7	0xbc8159e6	-0.015789937
8	0xbcf388c9	-0.02972831
9	0x3c7bea6e	0.015375717
10	0x3c9f5730	0.019450754
11	0x3c1e6be9	0.0096692825
12	0x3c4afd70	0.012389526
13	0xbb4914df	-0.0030682606
14	0x3d13353c	0.03593944
15	0xbd146812	-0.03623206
16	0xbcbe6313	-0.023240602
17	0xbd2b6309	-0.041842494
18	0x3c64a3e9	0.013955095
19	0x3a00794a	0.0004900886
20	0x3ca00df6	0.019537907
21	0x3b67b638	0.0035356414
22	0xbd0eb9dc	-0.034845218
23	0x3cb141d9	0.021637844
24	0xbba7f30f	-0.0051254104
25	0x3a1fdb7c	0.00060980744
26	0x3b2f87cd	0.0026783824
27	0xbbe2ab10	-0.006917365
28	0xba8e3837	-0.0010850494
29	0xbcc4e741	-0.024036052
30	0xbc4d50d8	-0.012531482
31	0x3ca60fdc	0.020271234
32	0x3d03ad36	0.03214761
33	0x3d16da25	0.036829133
34	0xbc35f09a	-0.011104727
35	0xbd103c7f	-0.035213944
36	0x3cfba26c	0.030717097
37	0x3c4ff75d	0.012693253
38	0x3cb45761	0.022014322
39	0xbb09fb50	-0.0021054335
40	0xbcbfe923	-0.023426598
41	0x3ce3c2da	0.027802873
42	0xbcce6e35	-0.025199035
43	0x3cd052f2	0.025430176
44	0xbc127120	-0.008938104
45	0xbc9897f4	-0.018627144
46	0x3d0b4ac7	0.03400686
47	0x3ce84bb0	0.028356403
48	0xbaf21bb9	-0.0018471397
49	0x3c6f4288	0.014603265
50	0xbcd87e42	-0.026427392
51	0x3c73e644	0.014886443
52	0x3af7c878	0.0018904349
53	0xbc4921f5	-0.012276162
54	0x3cc63f03	0.024199968
55	0x3ad9db92	0.0016621223
56	0x3ba7a4c4	0.005116077
57	0xbc4df2dd	-0.01257011
58	0x3c87fb63	0.016599363
59	0x3c95fbac	0.018308483
60	0x3d170317	0.03686818
61	0x3c8ded48	0.017325059
62	0x3d1e27ba	0.038612105
63	0xba7c7e1d	-0.00096318295
64	0xbcb28a81	-0.02179456
65	0x3c27d8b7	0.01024454
66	0x3c3156d7	0.010823927
67	0xbc5ea999	-0.01359024
68	0x3c66cd69	0.01408706
69	0x3c14fd17	0.009093544
70	0x3c80d2c4	0.0157255
71	0xbc169a84	-0.009192113
72	0xbc9aa73f	-0.018878577
73	0x3ce3964d	0.02778163
74	0xbc6f9dab	-0.014624993
75	0x3ca24253	0.019807016
76	0xbcb02cbf	-0.021505712
77	0x3c028ce6	0.007968163
78	0xbd1f807f	-0.038940903
79	0x3c299fa2	0.010353001
80	0xbce4fab4	-0.027951576
81	0xbc4fbeb4	-0.0126797445
82	0xbc5ce793	-0.013482946
83	0xbcb56130	-0.02214107
84	0x3bfd2619	0.007725489
85	0x3cb19c08	0.021680847
86	0x3cfcc49d	0.030855471
87	0xbc762c15	-0.015025158
88	0x3d0041f7	0.03131291
89	0xbc867624	-0.016413756
90	0xbcc65025	-0.024208138
91	0x3cb337d1	0.021877201
92	0xbc843304	-0.016137607
93	0x3b615816	0.0034384779
94	0x3c86a35f	0.016435323
95	0xbcd94408	-0.026521698
96	0x3c066cc8	0.008204646
97	0x3bdd1d31	0.0067478647
98	0x3cf4f6e4	0.029902883
99	0x3aa16f7e	0.0012316552
100	0x3c8969ab	0.01677402
101	0x3b61a6c7	0.0034431682
102	0xbc2ed41d	-0.010670689
103	0x3cfa2157	0.030533476
104	0xba673d23	-0.0008821061
105	0x3cccc148	0.024994507
106	0xba6d6f88	-0.0009057452
107	0xbc763b4d	-0.015028787
108	0x3bb97e36	0.0056607975
109	0x38c9d469	9.623991e-05
110	0xbd04e9e1	-0.032449607
111	0xbd1756fe	-0.036948197
112	0x3b0dccf6	0.0021637059
113	0xbbdf0b7a	-0.006806788
114	0xbc9fd483	-0.019510513
115	0xbc4d1005	-0.012516026
116	0x3a43012b	0.00074388337
117	0x3cc41bfb	0.023939123
118	0xbc6601b7	-0.014038495
119	0x3b9ab1b2	0.00472089
120	0x3cdb5dfc	0.026778214
121	0xbba632f9	-0.0050719944
122	0xbcbadd32	-0.022810552
123	0x3c5e7e92	0.013579981
124	0x3caf309a	0.02138548
125	0x3d03ca90	0.0321756
126	0xbcb760ed	-0.022385085
127	0xbc5fdb90	-0.013663188
128	0xbc002b5a	-0.007822836
129	0xbd1a7b12	-0.037715025
130	0x3b52a70c	0.0032143025
131	0x3d05e567	0.03268948
132	0x3c7614f3	0.015019643
133	0xbc9cdc72	-0.019148085
134	0xbd06b497	-0.032887068
135	0xb67dcb51	-3.7818284e-06
136	0xbcd4a19e	-0.025955971
137	0xbd08ad8c	-0.033368632
138	0xbcf063d1	-0.029344471
139	0x3bfb7fc1	0.0076751416
140	0x3d049002	0.0323639
141	0x3c3dec69	0.011592009
142	0xbc0c5b37	-0.008566669
143	0x3d02cd64	0.031934157
144	0x3d1ec741	0.038764242
145	0xbc1261d9	-0.0089344615
146	0xbc93b4bc	-0.018030517
147	0xbd031d9f	-0.03201067
148	0x3b8eb4b9	0.00435504
149	0x3c575e5e	0.0131450575
150	0xbb8f8660	-0.0043800324
151	0x3ba10d83	0.004914941
152	0x3b4dc785	0.003139944
153	0x3be00596	0.0068366034
154	0xbc4c2b51	-0.012461499
155	0xbc1d9d80	-0.00962007
156	0xbd0941d3	-0.03351004
157	0x3c901fcd	0.017593289
158	0xbbda23f8	-0.00665712
159	0xbcad84fd	-0.021181578
160	0x3c08e149	0.008354493
161	0x3c8c0a83	0.017094856
162	0xbc918889	-0.0177653
163	0xbb63cd75	-0.0034759913
164	0xbcd5a185	-0.026077995
165	0xbc3fd66b	-0.011708836
166	0xbb058734	-0.0020374777
167	0x3c8fa007	0.017532362
168	0xbc07dd94	-0.008292574
169	0xbcad944c	-0.021188878
170	0xbc04ff39	-0.00811749
171	0x3baa021a	0.005188239
172	0xbcf539d2	-0.029934797
173	0xbb2c4b77	-0.0026290098
174	0x3d145da3	0.03622211
175	0xbaea3eb5	-0.0017871471
176	0xbcfc7026	-0.030815195
177	0xbd0b7738	-0.034049243
178	0x3cafe2e7	0.0214705
179	0x3d203c6b	0.03912012
180	0xbc93865e	-0.018008407
181	0xbce118ef	-0.02747771
182	0xbd06df37	-0.032927718
183	0x3d162175	0.036653
184	0xbce11437	-0.02747546
185	0x3ce69da1	0.028151335
186	0xbc8a47a1	-0.016879858
187	0x3d0469b6	0.032327376
188	0xbc22b8ad	-0.009931725
189	0xbcd1bc9c	-0.025602631
190	0x3c31fd15	0.010863562
191	0x3b849c78	0.004046973
192	0x3cd62d4c	0.026144646
193	0x3b5f86f2	0.0034107533
194	0xbc752552	-0.014962511
195	0x39717539	0.0002302722
196	0xbc15c343	-0.009140792
197	0xbd05acc8	-0.03263548
198	0xbc440aef	-0.011965497
199	0x3caabdb1	0.020842405
200	0xbc025fbc	-0.007957395
201	0xbc5a725f	-0.013332932
202	0xbb42f808	-0.002974989
203	0xbd11a465	-0.03555717
204	0xbbaf5768	-0.005350996
205	0xbbc8f1b9	-0.006132331
206	0x3d267635	0.040640075
207	0x3c9467b0	0.018115848
208	0xbcb68098	-0.022278115
209	0xbcff0425	-0.031129906
210	0x3b329f5e	0.0027255635
211	0x3c9f7c1b	0.019468358
212	0x3bea53b2	0.0071510905
213	0xbca58d5f	-0.020209013
214	0x3c57eeb3	0.013179469
215	0xbb3e83e4	-0.0029070312
216	0xbd0a6c21	-0.033794526
217	0x3c94d69d	0.018168742
218	0xbd0c2179	-0.03421161
219	0xbc16eb4a	-0.009211371
220	0xbd1feb31	-0.039042655
221	0xbc34998b	-0.011022936
222	0x3cf2ef61	0.02965516
223	0xbcc674fc	-0.024225704
224	0xbcc35326	-0.02384336
225	0xbc806339	-0.015672313
226	0x3c8813a9	0.016610937
227	0xbd1ab207	-0.037767436
228	0xbd041dd2	-0.032255
229	0x3b3723a8	0.0027944837
230	0xbd0b5722	-0.034018643
231	0x3cdbbc3e	0.02682316
232	0x3ca3c37b	0.019990673
233	0x3b24572e	0.0025076377
234	0xbca82c5d	-0.020528967
235	0xbcca424d	-0.024689818
236	0xb9009e49	-0.00012265997
237	0x3ce9dff9	0.028549181
238	0xbc038f89	-0.008029827
239	0xbce885bf	-0.028384088
240	0xba9e747f	-0.0012089162
241	0xbd149bc1	-0.03628135
242	0xbc513dc4	-0.012771074
243	0x3d0cd147	0.03437927
244	0xbc9f7999	-0.019467162
245	0xbc824de9	-0.015906291
246	0x3c1c2dd8	0.009532414
247	0xbc15060a	-0.009095678
248	0x3bf1dfca	0.007381414
249	0xbcdb067c	-0.02673649
250	0x3cf1d533	0.029520607
251	0xbd06615d	-0.032807697
252	0xbcca0a0f	-0.024663
253	0xbcb14fa8	-0.021644428
254	0xbb9264ca	-0.0044675814
255	0xbb938797	-0.0045022476

base_model.model.distilbert.transformer.layer.0.attention.q_lin.lora_B.weight f4 [768, 6]
0	0x3b97305c	0.004613919
1	0x3b23cdc2	0.0024994467
2	0x3ab1a85a	0.0013554201
3	0x3a214775	0.00061523105
4	0x3b6a38d5	0.003573944
5	0xba0fc5e8	-0.00054845074
6	0xbb99d1ca	-0.0046941983
7	0xbb65fe05	-0.0035094034
8	0xbad66610	-0.0016357321
9	0xbae8f4ce	-0.0017773153
10	0xbbcd43c2	-0.006264181
11	0x3aa3bbe9	0.0012491915
12	0xbb97394a	-0.0046149837
13	0xbb7b40c5	-0.0038338166
14	0xbb02a7ea	-0.001993651
15	0xb8d49776	-0.000101371596
16	0xbba04186	-0.0048906235
17	0x39c9d7d9	0.00038498527
18	0x3ba66ed1	0.0050791283
19	0x3b502165	0.0031758186
20	0x3b0af2be	0.0021201815
21	0xbab49d96	-0.0013779874
22	0x3ba27685	0.0049579763
23	0xbacd45ee	-0.00156611
24	0xb650ad89	-3.1095426e-06
25	0x3b0e2312	0.0021688384
26	0x3b0d435d	0.0021555044
27	0x3b005a80	0.0019585192
28	0x3b4dbe32	0.0031393883
29	0xb94fa2b6	-0.00019801673
30	0x3a746312	0.0009322624
31	0x3a8a96ec	0.0010573543
32	0x3a4843ad	0.0007639479
33	0x39fa91d6	0.00047792372
34	0x3ae1eb26	0.0017236217
35	0x3a3d01c2	0.000721004
36	0x3a689bfe	0.00088733423
37	0x3b52bd00	0.003215611
38	0x39c39894	0.00037306978
39	0x3ad86886	0.0016510643
40	0x3b8f0004	0.0043640155
41	0xbb043b55	-0.0020176966
42	0x3b1cc4dd	0.002392105
43	0x39db7fcc	0.0004186615
44	0x3b0adfe7	0.0021190585
45	0xb8dbc034	-0.000104785344
46	0x3b2b903e	0.0026178504
47	0x3ae5d0d4	0.0017533549
48	0x3a93d974	0.0011280016
49	0xba8e0c98	-0.0010837493
50	0xbaa64474	-0.0012685196
51	0xb95c0bdb	-0.00020985251
52	0xbb3bc16b	-0.0028649222
53	0xba27bef1	-0.0006398997
54	0x37cb5bd2	2.4242243e-05
55	0x3ac20d97	0.0014805075
56	0x39265989	0.00015864348
57	0xba96e4e9	-0.0011512312
58	0x3af4874e	0.0018656047
59	0x38a41e47	7.825769e-05
60	0xb89a8880	-7.368717e-05
61	0x3b2bf6eb	0.0026239704
62	0x3b057a8e	0.0020367238
63	0x3846368f	4.725769e-05
64	0x3b0488e5	0.0020223197
65	0x39c14a73	0.00036867298
66	0x3b5e0b49	0.0033881238
67	0x3aaa892b	0.001301085
68	0x3aab9571	0.0013090802
69	0xba0ee828	-0.0005451464
70	0x3b49e3f4	0.0030806037
71	0xba8d2348	-0.0010767961
72	0x3abdfe41	0.0014495329
73	0x3b556349	0.00325604
74	0x392a89ff	0.00016263871
75	0x3a8ba258	0.0010653241
76	0x3af80c9f	0.001892466
77	0xbb2785c3	-0.0025561906
78	0xb8a73027	-7.9721496e-05
79	0x3aa84c10	0.0012840051
80	0xb954e4f9	-0.00020303194
81	0x3a8b90bf	0.0010647996
82	0x3b39d70b	0.0028356935
83	0xbaaeb2f6	-0.0013328481
84	0x3b4dc4d8	0.0031397846
85	0x3b413190	0.0029479004
86	0x3b0faca4	0.002192297
87	0xba8b866e	-0.0010644922
88	0x3b91ceab	0.0044496856
89	0x3a9568b6	0.0011399004
90	0x3b5ba3fc	0.003351449
91	0x3b0a7393	0.0021126017
92	0x3b47d8e7	0.0030494274
93	0x3b3d26c0	0.0028862208
94	0x3ba36610	0.004986532
95	0xba75daf8	-0.0009378637
96	0xbae73b04	-0.0017641489
97	0x398c6104	0.00026775163
98	0xbb16959e	-0.0022977362
99	0x3afec81d	0.00194383
100	0x39aed9bb	0.00033350088
101	0xbaae97df	-0.0013320408
102	0xbb3bc5b2	-0.002865177
103	0xbb3671bf	-0.0027838794
104	0xbacfcc43	-0.0015853721
105	0xbae63b96	-0.0017565365
106	0xbb815a01	-0.003947497
107	0xba7981d3	-0.00095179415
108	0xbb528a48	-0.003212588
109	0xbb0c7bf3	-0.0021436184
110	0xbb34f352	-0.002761085
111	0x3a401e85	0.00073287665
112	0xbadc892a	-0.0016825546
113	0x3923c9d9	0.00015620085
114	0x3b1bdd5d	0.0023783066
115	0x3a8c12f0	0.0010686796
116	0x381247fe	3.487616e-05
117	0xba907da5	-0.0011023773
118	0x3b5476c2	0.0032419418
119	0x3852f309	5.0294246e-05
120	0x3b63110d	0.0034647614
121	0x3b808354	0.0039219055
122	0x3aacdc19	0.0013188153
123	0x3b13f887	0.0022578554
124	0x3b96b630	0.004599355
125	0x38e15202	0.00010744111
126	0x3aebe92f	0.0017998571
127	0x3b10b347	0.0022079514
128	0xba0ca493	-0.00053650996
129	0x3994c9f5	0.0002837923
130	0x3b27d074	0.0025606425
131	0xbafdb52e	-0.0019356364
132	0xba853e8b	-0.0010165734
133	0xba828469	-0.0009957674
134	0xbb35076f	-0.002762284
135	0x3b0a1ad4	0.002107312
136	0xba59e4c0	-0.00083119795
137	0xbaae321e	-0.0013290083
138	0x3b9477aa	0.0045308666
139	0x3b6c2969	0.0036035425
140	0x3b382e1b	0.0028103653
141	0xbb01dbbe	-0.0019814814
142	0x3ba910ed	0.0051594884
143	0x3b01fa42	0.0019833003
144	0x3acb9b08	0.0015533874
145	0x3ae6f86a	0.001762164
146	0x3ab57145	0.0013842961
147	0x3adf0038	0.0017013615
148	0x3b2b7ead	0.0026168034
149	0xbaf38ab2	-0.0018580763
150	0xbaa5c982	-0.0012648555
151	0x39b9bc56	0.0003542627
152	0x3ad6b898	0.0016381918
153	0x3a3cbd34	0.00071998243
154	0x3a19bd8b	0.0005864731
155	0x3aaa6066	0.00129987
156	0xbb0f1bbf	-0.0021836606
157	0x399aa2cc	0.00029494462
158	0xba290dd3	-0.00064488983
159	0x3adf9b9f	0.0017059929
160	0xbb10e0c3	-0.0022106625
161	0xbb1fecdb	-0.0024402651
162	0x3ba99c1c	0.0051760804
163	0x3b5123f5	0.0031912301
164	0x3b4f5421	0.0031635838
165	0xbaed33f5	-0.001809715
166	0x3b854f6c	0.0040683057
167	0xb92c0592	-0.00016405273
168	0xbaafc40f	-0.001340987
169	0x3b183713	0.0023226186
170	0x38de6b77	0.00010605802
171	0xb929746e	-0.0001616047
172	0xba8874cf	-0.0010410788
173	0xba57f4f6	-0.0008238101
174	0xbb801b6c	-0.003909519
175	0xbb20bb33	-0.0024525642
176	0xba780404	-0.00094610476
177	0x3a211eb2	0.00061462366
178	0xbbb83fd6	-0.005622844
179	0xb88e6bd5	-6.791173e-05
180	0x3b2bb4e8	0.0026200358
181	0x3a1d01ae	0.0005989325
182	0x3a7277f1	0.000924944
183	0xb9eaafad	-0.00044762847
184	0x3af5b577	0.0018746097
185	0x3a9e2ec5	0.0012068382
186	0xbb12ad0d	-0.0022380978
187	0xbb509f7d	-0.0031833344
188	0xbaa9a1a0	-0.0012941845
189	0xb8c0cd3e	-9.193503e-05
190	0xbb858fa0	-0.0040759593
191	0xb93d47ee	-0.0001805124
192	0xbb46807f	-0.0030288992
193	0xbb0c6e57	-0.0021428072
194	0x39bec97d	0.00036389744
195	0xba7cea2c	-0.00096479314
196	0xbb7c72ea	-0.0038520643
197	0x3ad3224a	0.0016108241
198	0xbb694328	-0.0035593007
199	0xbb2914c5	-0.0025799733
200	0xb605e52f	-1.9951947e-06
201	0xb95094a1	-0.00019891794
202	0xbb812275	-0.003940875
203	0xba593454	-0.00082856906
204	0x3b3d900f	0.0028924977
205	0x3ad89e88	0.0016526738
206	0xba757441	-0.00093633315
207	0xbabf9fcc	-0.0014619767
208	0x3b561677	0.0032667199
209	0xbb23a38a	-0.0024969303
210	0xbb52dcdc	-0.00321751
211	0xbb11a83a	-0.0022225515
212	0xb87ddafa	-6.052384e-05
213	0x3976ad4c	0.00023524946
214	0xbba2992d	-0.0049621076
215	0x38b18f1f	8.466676e-05
216	0xbb22a2d8	-0.00248163
217	0xba5db237	-0.0008457037
218	0x39501d18	0.00019847264
219	0x3af8f93a	0.0018995174
220	0xb9a86b79	-0.0003212353
221	0x39db0559	0.0004177492
222	0xbad93534	-0.0016571642
223	0xbb5e62a4	-0.0033933306
224	0xbae9baf2	-0.0017832203
225	0x3a3dbd13	0.0007237952
226	0xbb24bf54	-0.0025138455
227	0xbab74c5a	-0.0013984547
228	0x3b9d1bec	0.0047945883
229	0x3a4933e8	0.0007675276
230	0xb90b84e0	-0.00013305573
231	0x3a7bc24a	0.00096038415
232	0x3b58656d	0.003301944
233	0xba5f9c20	-0.00085300393
234	0xba7e585d	-0.0009702498
235	0x39ac3e64	0.0003285288
236	0xba7d8983	-0.0009671675
237	0x39fa5c97	0.000477527
238	0x3b072b81	0.0020625296
239	0xba95f45b	-0.0011440621
240	0xbab27c17	-0.0013617304
241	0xbb8d0434	-0.0043034796
242	0xba983508	-0.0011612484
243	0xba975002	-0.001154423
244	0xbbb9dcba	-0.0056720646
245	0x3a533a60	0.000805771
246	0xbab9cc96	-0.0014175351
247	0xbaf873c7	-0.0018955403
248	0x3a977fe2	0.0011558498
249	0x3a683fa8	0.0008859583
250	0xbaba0613	-0.0014192484
251	0x3ae84dcc	0.0017723381
252	0x3b144698	0.0022625085
253	0x3b0a19f0	0.002107259
254	0xba5738dd	-0.00082100724
255	0xba4ad531	-0.00077374565

base_model.model.distilbert.transformer.layer.0.attention.v_lin.lora_A.weight f4 [6, 768]
0	0x3d167d5a	0.03674064
1	0x3be53f9f	0.0069961096
2	0xbcf4d62a	-0.029887278
3	0xbc9691a8	-0.018380001
4	0x3c9d948d	0.019235874
5	0x3bb87288	0.0056288876
6	0xbcf2e286	-0.02964903
7	0xbaf96ba4	-0.0019029272
8	0x3b658518	0.0035021957
9	0x3cdeccb4	0.02719722
10	0xbd066682	-0.032812603
11	0xbc4205b8	-0.011842184
12	0xbd1397d0	-0.03603345
13	0x3cb4b1fa	0.022057522
14	0x3b99ad52	0.004689851
15	0x3cbedd4e	0.023298886
16	0xbbf1d582	-0.0073801884
17	0xbd0fe9b5	-0.03513499
18	0xbc86acd7	-0.016439838
19	0xbccbccf2	-0.024877999
20	0x3ca467b0	0.020068973
21	0xbc5d244a	-0.0134974215
22	0xbd0010cc	-0.03126602
23	0xbb0edaf6	-0.0021797991
24	0xbcc5e21c	-0.024155669
25	0x3cfcaa74	0.030842997
26	0xbc0ce0ee	-0.008598549
27	0xbc09393a	-0.00837546
28	0xbaf6eb95	-0.001883852
29	0xbc2bd392	-0.010487454
30	0xbc1fc0c5	-0.00975055
31	0x3c4af477	0.0123873865
32	0xbc236071	-0.009971724
33	0xbcb05da3	-0.021529024
34	0x3d0040b0	0.03131169
35	0xbcd36676	-0.025805693
36	0xbc58cee8	-0.013232924
37	0x3c03688a	0.0080205295
38	0xbd0b4c33	-0.034008216
39	0xbc2d0cd7	-0.010562143
40	0xbcfce157	-0.03086917
41	0x3ce83898	0.028347299
42	0x3ca0420e	0.019562747
43	0xbcab99fa	-0.020947445
44	0x3c9079bf	0.017636178
45	0xbd053559	-0.03252158
46	0x3cb368df	0.021900592
47	0x3c9061f1	0.017624827
48	0xbcbdf61e	-0.023188647
49	0x3cf08de8	0.029364541
50	0xbd06b475	-0.03288694
51	0xbc8891d8	-0.016671106
52	0x3c128860	0.008943647
53	0x3d0c9039	0.03431723
54	0xbcb04388	-0.021516576
55	0xbc91f2f7	-0.01781605
56	0x3cb97688	0.022639528
57	0xba373c09	-0.0006989842
58	0x3ca092b8	0.019601211
59	0x3c92913e	0.017891522
60	0x3cfc1b3e	0.030774709
61	0xbcf1c030	-0.029510587
62	0x3c79cfaa	0.015247265
63	0x3cdadd0f	0.026716737
64	0xbb7ee51c	-0.0038893884
65	0xbc6f9628	-0.014623202
66	0x3cf1ef13	0.029532945
67	0xbc14a80e	-0.0090732705
68	0x3bb7af7b	0.0056056357
69	0xbcc5b63d	-0.02413475
70	0xbcde2e59	-0.02712171
71	0x3ceac89c	0.028660111
72	0xbd0a0a47	-0.033701207
73	0x3c95b08f	0.018272666
74	0x3cefb270	0.02925989
75	0xbc1f0fab	-0.009708325
76	0x3c8cbb5f	0.01717919
77	0xbd0e4fa0	-0.034743905
78	0xbd015b4b	-0.031581204
79	0x3b01e111	0.0019817988
80	0x3d02f8de	0.03197562
81	0x3cf16cc2	0.029470805
82	0x3ba1c000	0.0049362183
83	0xbb8901aa	-0.0041811066
84	0x3b56a02b	0.0032749276
85	0xbc91c1f7	-0.017792685
86	0xbc2b0c1c	-0.010439899
87	0x3cc9bb1d	0.024625355
88	0xbd01102c	-0.031509563
89	0xbcb82e85	-0.02248312
90	0xbcb17783	-0.021663433
91	0x3cd1b79d	0.025600249
92	0x3c1f17fa	0.009710306
93	0xbd04870a	-0.032355346
94	0xbc817949	-0.015804904
95	0xbc22334e	-0.009899927
96	0xbc89bdc5	-0.016814122
97	0xba44d66f	-0.000750876
98	0x3c7a0306	0.01525951
99	0xbc7c54f2	-0.015401112
100	0xbc590e41	-0.013248027
101	0x3c3c8d56	0.0115083065
102	0xbc91140e	-0.017709758
103	0x3c895894	0.01676587
104	0xbc7d9c5d	-0.015479174
105	0xbc1ac616	-0.009446641
106	0xbcaff2fe	-0.021478172
107	0x3cb40da2	0.021979157
108	0x3c329e1a	0.010901952
109	0xbc5a519e	-0.013325123
110	0x3cc5b282	0.02413297
111	0x3c8e7913	0.017391717
112	0xbc6e7890	-0.0145551115
113	0x3c3a0d00	0.0113556385
114	0xbca092e7	-0.019601298
115	0x3c25ecec	0.010127287
116	0x3d0ca684	0.03433849
117	0x3c3f6ca2	0.011683615
118	0xbbe7f1dd	-0.007078393
119	0xbc11581f	-0.008871107
120	0xbd08b9d4	-0.033380345
121	0x3d174ea8	0.036940247
122	0xbd0d11e7	-0.0344409
123	0x3c87a16e	0.016556468
124	0xbcc93001	-0.024559023
125	0xbc8e3b2e	-0.017362203
126	0xbca51869	-0.020153241
127	0xbc88ef2b	-0.016715607
128	0x3c7ff3bf	0.015622078
129	0xbc325a0c	-0.010885727
130	0xbbd0bda3	-0.0063702627
131	0x3d1ce305	0.03830244
132	0x3a8d1f92	0.0010766855
133	0x3c1e636f	0.0096672615
134	0xbcc81140	-0.024422288
135	0xbd1ee779	-0.03879497
136	0x3a29cfa3	0.00064777787
137	0xbba4edf2	-0.005033248
138	0xbca2c150	-0.01986757
139	0xbbd36c2c	-0.006452104
140	0x3ce12eeb	0.027488193
141	0xbc9f6813	-0.019458806
142	0xbd294a25	-0.041330475
143	0xbc1190a2	-0.008884581
144	0x3c9fda72	0.019513343
145	0xbcab961c	-0.020945601
146	0x3d1d1188	0.038346797
147	0x3b0e1880	0.0021682084
148	0xbd09ddd4	-0.033658817
149	0x3c08f5ce	0.008359386
150	0x3c1aee19	0.009456181
151	0x3c9f4ca5	0.019445727
152	0x3c85cbed	0.016332591
153	0x3d247f23	0.04016031
154	0xbbb59e5f	-0.005542561
155	0x3c84acfc	0.016195767
156	0x3c9557e0	0.018230379
157	0x3b65c36e	0.0035059112
158	0xbc9dc6a4	-0.019259758
159	0xbc3d23cf	-0.011544182
160	0x3c5b1c51	0.01337345
161	0x3d078f83	0.033095848
162	0x3d091c60	0.033474326
163	0xbc6a24ed	-0.01429103
164	0xbcec1210	-0.028817207
165	0x3ca9b120	0.020714343
166	0xbc14c150	-0.009079292
167	0x3c2347f2	0.009965884
168	0xbcb3d46b	-0.021951875
169	0xbcca1006	-0.024665844
170	0xbc9c226d	-0.019059384
171	0x3cb68074	0.022278048
172	0xbd0628db	-0.032753807
173	0xbb6436b8	-0.0034822654
174	0xbb86aad9	-0.004109722
175	0x3cac43f7	0.021028502
176	0x3c21a844	0.009866778
177	0x3c42e937	0.011896423
178	0x3d0527e6	0.032508753
179	0xbac9265a	-0.0015346513
180	0xbc05d67f	-0.008168816
181	0x3cb91ee9	0.022597747
182	0x3c30357d	0.01075494
183	0xbc920b16	-0.017827552
184	0xbd182f78	-0.037154645
185	0x3c64fdea	0.013976553
186	0xbcc1831a	-0.023622084
187	0xbc5c8ed9	-0.013461792
188	0xbd15d919	-0.036583994
189	0xbbba853e	-0.0056921532
190	0x3c09d23e	0.008411942
191	0xbc2ffb9a	-0.010741139
192	0xbca40d40	-0.02002585
193	0xbcbf8bae	-0.023382034
194	0xba3bd5d7	-0.00071653485
195	0xbd0ac117	-0.03387555
196	0xbaecb50b	-0.0018059326
197	0x3ae34c04	0.001734138
198	0x3cfa8cfb	0.030584803
199	0xbd1149f2	-0.03547091
200	0x3aaee952	0.0013344681
201	0xbc491def	-0.012275203
202	0xbcfb81b3	-0.030701494
203	0xba4415e3	-0.0007480068
204	0xbd06dad9	-0.032923553
205	0x39252bbc	0.00015751919
206	0xbc9ac546	-0.018892895
207	0x3ca57bad	0.020200575
208	0x3bf0a84b	0.007344281
209	0x3be33138	0.0069333576
210	0xbca96799	-0.020679282
211	0x3b481bc2	0.0030534123
212	0x3b3df133	0.0028982877
213	0xbc3c0d15	-0.011477728
214	0x3ce76b86	0.028249513
215	0xbd07beef	-0.033141073
216	0xbc735221	-0.014851124
217	0xbb8e2cf8	-0.004338857
218	0xbcd6a6f9	-0.026202666
219	0xbcfd6b4e	-0.030934956
220	0x3c475ca4	0.012168083
221	0x3cdeb39e	0.027185258
222	0x3c234090	0.009964123
223	0xbc0dd451	-0.008656577
224	0x3bd22c41	0.006413967
225	0x3b7ac131	0.0038262124
226	0xbb3741f5	-0.0027962897
227	0x3bb9d335	0.00567093
228	0xbc012702	-0.007882835
229	0xbd0fe485	-0.035130043
230	0x3d1ab028	0.037765652
231	0x3cd76d36	0.026297193
232	0x3bcb93ea	0.006212701
233	0xbce36d74	-0.027762152
234	0x3a5fbe0e	0.0008535095
235	0x3c11b310	0.0088927895
236	0xbcd9af8d	-0.026572967
237	0x3cae1271	0.021249028
238	0x3b990f5a	0.0046710195
239	0x3cfa2f54	0.030540146
240	0xbc4bd5b4	-0.0124410875
241	0xbd02c0d2	-0.03192217
242	0xbd05190e	-0.032494597
243	0x3cc5d4ab	0.02414926
244	0xbcfa9c74	-0.03059218
245	0x3b36f1a6	0.002791503
246	0x3d0dd872	0.034630246
247	0xbc7740a8	-0.015091099
248	0x3cff5762	0.031169597
249	0x3cb5d2a4	0.022195168
250	0xbce0623f	-0.027390597
251	0x3b9f6bfc	0.0048651677
252	0xbcfcf499	-0.030878352
253	0xbd0f2b95	-0.034953672
254	0x3cc275a7	0.023737742
255	0xbc986575	-0.018603066
